app/ML_artifacts/model.pth (torch, 492892 bytes, 9 tensors)

weight_ih_l0 f4 [400, 1]
0	0x3e1307e1	0.14358474
1	0xbd3e90c6	-0.046524785
2	0xbcb6fe66	-0.022338104
3	0x3cf34614	0.029696502
4	0xbccd2b05	-0.025044927
5	0xbcb28b8f	-0.021795062
6	0x3cbe8055	0.023254553
7	0xbaf11352	-0.0018392599
8	0x3c73236a	0.014839986
9	0x3a55fc5d	0.000816291
10	0x3db1b520	0.08677125
11	0x3c1cbc17	0.0095663285
12	0xbdc9c8b3	-0.098527335
13	0xbd12eb43	-0.035868894
14	0x3d989912	0.07451071
15	0x3dd211c8	0.10257298
16	0x3d87142f	0.065956466
17	0xbd6ad154	-0.057328537
18	0xbd90d2ba	-0.07071443
19	0x3ccdf6d5	0.025142113
20	0x3da80eaf	0.08205926
21	0x3d964d95	0.07339016
22	0x3c539ca3	0.012915763
23	0xbd829014	-0.06375137
24	0x3dd40136	0.103517935
25	0x3d06dc0c	0.032924697
26	0x3b82ebd6	0.003995399
27	0x3e0f2fe4	0.13983113
28	0x3d875eef	0.06609904
29	0xbd93d536	-0.07218401
30	0xbdb7bf57	-0.08972042
31	0x3b137ca1	0.0022504705
32	0x3d62711b	0.055283647
33	0xbda634a5	-0.0811551
34	0x3d173624	0.036916867
35	0x3d828e3e	0.06374787
36	0xbca9324f	-0.020653872
37	0x3c880527	0.01660402
38	0xbd87672f	-0.066114776
39	0xbd03ac73	-0.032146882
40	0xbd0d8a72	-0.03455586
41	0x3d25cc0d	0.0404778
42	0x3e06e258	0.13172281
43	0x3c66449f	0.0140544465
44	0xbc417e67	-0.011809922
45	0x3d8b63ac	0.0680612
46	0xbe8d0ff8	-0.27551246
47	0xbdc66060	-0.09686351
48	0x3c656e27	0.014003313
49	0xbdb11c8a	-0.086480215
50	0xbde19852	-0.11015381
51	0xbbdf4b38	-0.0068143867
52	0xbd93f485	-0.07224373
53	0x3d5849c3	0.05280472
54	0xbd2b5e09	-0.041837726
55	0x3db97e7b	0.09057327
56	0x3dbe21b0	0.09283769
57	0x3d6e9508	0.058247596
58	0x3d4eaa30	0.050455272
59	0x3c6c2f21	0.014415533
60	0x3d3edeee	0.04659932
61	0xbcbe08bd	-0.023197526
62	0xbdb8532a	-0.09000237
63	0x3e09f341	0.134717
64	0x3d2789a6	0.040902756
65	0x3dc5525d	0.0963485
66	0xbdecd609	-0.115642615
67	0x3e87e4f7	0.26541874
68	0xbddc383c	-0.10752913
69	0x3d2dd998	0.04244384
70	0xbdd1cfae	-0.1024469
71	0x3dcf9875	0.10136501
72	0x3c842286	0.016129743
73	0xbcd401f6	-0.025879841
74	0x3e021716	0.12704119
75	0x3da4b457	0.080422096
76	0x3d89524d	0.06705151
77	0xbde00fa6	-0.10940485
78	0x3c2681b4	0.01016276
79	0xbcda8585	-0.026674995
80	0x3d702cad	0.058636356
81	0x3e36d445	0.17854412
82	0xbd330b5d	-0.04371201
83	0x3df87362	0.121313825
84	0x3dd08a16	0.10182588
85	0x3c847864	0.016170688
86	0x3e29711f	0.16547059
87	0x3de6ccb3	0.11269512
88	0x3baeff0e	0.0053404635
89	0x3cf5bbfd	0.029996866
90	0xbd6dcce3	-0.058056723
91	0xbda904c1	-0.0825286
92	0x3b4b2104	0.003099502
93	0x3ca73de9	0.020415263
94	0x3d1bb952	0.038018532
95	0x3dc79347	0.09744888
96	0x3d3f01d4	0.046632603
97	0x3ea588b7	0.32330868
98	0x3dbb1267	0.09134369
99	0xbda38ee3	-0.07986238
100	0xbd3859c0	-0.045007467
101	0x3e94b1fa	0.29042035
102	0x3d63be23	0.05560125
103	0x3d27271c	0.040808782
104	0x3c860160	0.016358078
105	0xbd9c8cb7	-0.07644027
106	0x3e07d61c	0.1326527
107	0x3e1035c1	0.14083005
108	0xbdc5a537	-0.09650653
109	0xbcfa35ab	-0.030543169
110	0xbe045498	-0.12922895
111	0x3e5959dd	0.21225686
112	0x3e66a732	0.22524717
113	0x3e16a107	0.14709865
114	0x3e1e635e	0.15467593
115	0x3e677a95	0.22605355
116	0x3e3701c0	0.17871761
117	0x3d86fab7	0.06590789
118	0xbd81c89b	-0.063370906
119	0x3d85d43c	0.06534621
120	0x3d734985	0.059396286
121	0xbd3c5ed3	-0.04598887
122	0x3c15c50e	0.00914122
123	0x3dc251f5	0.09488288
124	0xbb9ee59a	-0.004849148
125	0x3c81ce64	0.015845485
126	0x3ec141d1	0.37745526
127	0x3e10e1f7	0.14148699
128	0x3bfe3f8e	0.007759041
129	0xbc9a7163	-0.018852895
130	0x3eb42dfb	0.3519133
131	0xbc72516d	-0.014789921
132	0x3b92a5dc	0.0044753384
133	0x3d5de930	0.054177463
134	0xbdad0958	-0.08449048
135	0x3cdff120	0.027336657
136	0xbda6efb3	-0.08151188
137	0xbc6dfe2c	-0.014525931
138	0x3e5d0409	0.2158357
139	0x3c2ac2df	0.010422437
140	0x3df58b25	0.1198943
141	0x3e68115e	0.22662875
142	0x3e950d96	0.29111928
143	0x3d960800	0.07325745
144	0xbd7048dd	-0.058663238
145	0xbd4382ac	-0.04773204
146	0xbee06181	-0.4382439
147	0x3c7c8f16	0.015414974
148	0xbd5b6cbc	-0.053570494
149	0x3ef5a3fa	0.47976667
150	0x3e473b91	0.19456317
151	0x3d88ebd8	0.066856086
152	0x3e752e3f	0.23943423
153	0x3ca2e01f	0.01988226
154	0x3e5556f2	0.20833948
155	0x3d989a96	0.0745136
156	0x3e27316f	0.16327451
157	0xbdf70b68	-0.120627224
158	0xbc81a036	-0.015823465
159	0x3c9906e4	0.018680044
160	0xbe2e0885	-0.16995437
161	0x3e895961	0.26826003
162	0x3ee607b1	0.44927743
163	0x3cbb2e17	0.022849126
164	0xbdc4a6ce	-0.09602128
165	0x3ca35826	0.019939493
166	0x3e391aed	0.18076678
167	0x3e31c3d6	0.17359862
168	0x3e217d8c	0.15770549
169	0x3d4713f9	0.04860303
170	0x3e599384	0.21247679
171	0x3cd0572b	0.02543219
172	0x3e723c71	0.23655869
173	0x3d0f3632	0.034963794
174	0x3df95e04	0.12176135
175	0xbd02d1cc	-0.03193836
176	0x3d000092	0.031250544
177	0x3dae677b	0.08515831
178	0x3e30aa1e	0.17252395
179	0xbdc20522	-0.09473635
180	0xbe528908	-0.20560086
181	0x3e15331c	0.14570278
182	0x3ddfee45	0.10934118
183	0xbcd8c53b	-0.026461234
184	0x3d1ffbd9	0.03905854
185	0x3c19c5b4	0.009385515
186	0x3d0fb9ac	0.03508918
187	0x3d379cca	0.04482726
188	0x3ecf2a6a	0.40462047
189	0x3d5e5867	0.054283526
190	0x3dcd81c3	0.10034516
191	0x3e79c169	0.24390186
192	0x3df6ae74	0.12044993
193	0x3e0400d1	0.12890936
194	0xbcf63ef6	-0.030059319
195	0x3d0f9fef	0.035064634
196	0xbb849a54	-0.0040467177
197	0x3e8392be	0.25697893
198	0x3eba688f	0.36407897
199	0x3bea25e9	0.0071456325
200	0x3c147f4f	0.009063556
201	0x3e6326a3	0.22182707
202	0xbd2981e9	-0.041383658
203	0xbd0470b0	-0.03233403
204	0xbde0dc9e	-0.109795794
205	0x3f88f1b7	1.0698766
206	0x3deb6e84	0.114956886
207	0x3dd5fd05	0.1044865
208	0x3e6c4a92	0.23075321
209	0xbf3baedb	-0.73313683
210	0xbe26fc09	-0.16307081
211	0x3d49849f	0.049198743
212	0x3e015b48	0.12632477
213	0xbbd9590f	-0.006632931
214	0x3cd9bd12	0.026579414
215	0x3df6bbe8	0.12047559
216	0xbd5e08c9	-0.054207597
217	0xbd4a66ce	-0.04941445
218	0x3e3b2931	0.18277432
219	0xbdc8c79e	-0.09803699
220	0xbd7046d5	-0.0586613
221	0x3d8aa657	0.06770008
222	0x3db23853	0.08702149
223	0x3db23964	0.08702353
224	0x3d801dee	0.06255709
225	0xbf09a2ad	-0.5376385
226	0xbe9e5885	-0.3092691
227	0x3da429d7	0.08015793
228	0x3d121cdf	0.035672065
229	0xbc6a36e4	-0.0142953135
230	0xbc0c20f4	-0.0085527785
231	0x3beafe95	0.007171462
232	0xbe0e025a	-0.13868085
233	0xbebe6b73	-0.37191352
234	0x3dfd80de	0.12378095
235	0xbd0476b1	-0.032339755
236	0xbe884e05	-0.26622024
237	0xbd59cf4a	-0.053176202
238	0x3dcbad46	0.09945159
239	0x3d52caf8	0.051463097
240	0xbdd33568	-0.10312921
241	0x3e1c1c99	0.15245284
242	0xbe94a0c6	-0.2902891
243	0xbd0aa0d1	-0.033844773
244	0x3e37e333	0.17957763
245	0x3da614c4	0.081094295
246	0xbe55a656	-0.20864233
247	0xbc179fe2	-0.009254428
248	0xbe3c2e15	-0.18376954
249	0xbe53e53b	-0.20692913
250	0x3eb67e95	0.3564345
251	0x3de9e160	0.1141994
252	0xbeb68897	-0.35651085
253	0x3dccea77	0.10005658
254	0x3f02dc95	0.5111783
255	0x3d86bc2f	0.06578862

weight_hh_l0 f4 [400, 100]
0	0x3dbb1b19	0.09136028
1	0x3dcc7eb5	0.09985105
2	0xbd3cdef4	-0.046111062
3	0xbde90d7a	-0.113795236
4	0xbe5de3df	-0.21668957
5	0x3e4c9598	0.1997894
6	0x3de256a1	0.110516794
7	0x3dcaf017	0.09909075
8	0xbcea1f47	-0.028579367
9	0x3d85d3ee	0.06534563
10	0xbdf48dca	-0.119411066
11	0x3e0223a1	0.12708904
12	0x3dfa69ba	0.12227197
13	0x3d324714	0.043524817
14	0xbcd6f33d	-0.026239032
15	0x3ebf7929	0.37397125
16	0x3e71fd1a	0.23631707
17	0xbe3b90bd	-0.18316932
18	0x3e502b61	0.20329048
19	0xbe09ce06	-0.13457498
20	0xbe0c05e9	-0.1367413
21	0x3d8cd212	0.06876005
22	0xbd1777c4	-0.03697945
23	0x3c994b5d	0.018712694
24	0x3de8257b	0.11335274
25	0xbc17c2d0	-0.0092627555
26	0x3cc7106d	0.024299825
27	0x3e2d0f92	0.16900471
28	0x3e89ca8e	0.2691235
29	0xbdbaa32f	-0.09113156
30	0xbb2cad2c	-0.0026348336
31	0x3e3e8b38	0.18607795
32	0x3d5ed199	0.054399107
33	0xbc552755	-0.013009866
34	0xbd1747ec	-0.036933824
35	0x3a8d20f8	0.0010767272
36	0xbb5c028f	-0.003357086
37	0xbcf55278	-0.02994655
38	0x3e20777d	0.15670581
39	0xbd4e41c3	-0.050355684
40	0xbddba740	-0.1072526
41	0x3e3de357	0.18543755
42	0xbe2a6764	-0.16641003
43	0xbe15a655	-0.14614232
44	0x3d387244	0.045030847
45	0x39912687	0.0002768526
46	0xbd3c7138	-0.04600641
47	0xbc574e79	-0.013141268
48	0xbd96759f	-0.07346653
49	0xbd3a42c3	-0.045473825
50	0x3e408801	0.18801881
51	0x3da746b5	0.08167783
52	0xbc8c819c	-0.017151646
53	0x3c7d6cd6	0.015467843
54	0x3d925202	0.07144548
55	0x3cd6b7d8	0.02621071
56	0xbcd2d5bd	-0.025736684
57	0xbdfca49b	-0.123360835
58	0x3df2f9a0	0.118640184
59	0xbcaad7d5	-0.02085487
60	0x3dcf9de1	0.10137535
61	0x3d3a6e97	0.045515623
62	0xbd2ca12e	-0.0421459
63	0x3d664afd	0.05622386
64	0x3da6f850	0.081528306
65	0x3d9c3c72	0.076287165
66	0xbec28cc9	-0.37998036
67	0x3a8659da	0.0010250167
68	0xbd821a5d	-0.06352685
69	0xbe12a587	-0.14320956
70	0xbcefbd75	-0.029265145
71	0x3e0b2080	0.13586617
72	0x3e7829b5	0.2423466
73	0xbb8578d6	-0.0040732427
74	0xbe69e591	-0.22841479
75	0x3d2a339c	0.041553125
76	0x3e13e08e	0.1444113
77	0xbcea30ec	-0.02858778
78	0xbdfb919d	-0.12283633
79	0xbe1dcc02	-0.15409854
80	0xbd79a580	-0.06094885
81	0x3cbf6a6b	0.023366174
82	0x3cb53cf2	0.022123788
83	0xbe075a12	-0.13217953
84	0x3e219420	0.15779161
85	0xbc7205ad	-0.014771861
86	0xbcc34d46	-0.023840558
87	0x3de82f7e	0.113371834
88	0x3cfa9730	0.03058967
89	0xbd6ba75c	-0.057532653
90	0xbde365d7	-0.11103409
91	0x3d07c115	0.03314312
92	0x3c704e85	0.014667158
93	0x3d80bc0e	0.062858686
94	0xbe0a218a	-0.13489357
95	0x3cd15710	0.02555421
96	0x3dc0551d	0.09391234
97	0x3e09bacb	0.13450162
98	0xbd84dfc1	-0.0648799
99	0xbd5b249c	-0.05350171
100	0x3c7686da	0.0150468
101	0xbc7dcfaf	-0.01549141
102	0xbd57d6e0	-0.052695155
103	0xbdcf7054	-0.10128847
104	0xbd856259	-0.06512899
105	0x3dee355e	0.11631273
106	0x3e1af06c	0.15130776
107	0xbc4cc2ec	-0.012497645
108	0xbdc2632e	-0.09491573
109	0x3d3c27d7	0.04593643
110	0xbd49fd57	-0.04931387
111	0x3df480de	0.11938642
112	0x3e1d9400	0.15388489
113	0x3e2c352e	0.16817161
114	0x3d93003e	0.071777806
115	0x3e0f8356	0.14014944
116	0x3dd822a2	0.10553481
117	0xbde3bc04	-0.111198455
118	0x3d86ab0c	0.06575593
119	0xbe30c9d6	-0.17264494
120	0xbd8a7dae	-0.06762253
121	0xbe26910b	-0.16266267
122	0xbd51c6ae	-0.051214866
123	0xbd8418be	-0.06450032
124	0x3e4d087f	0.20022772
125	0x3cf6b5d5	0.030116001
126	0xbce63620	-0.02810198
127	0xbc4a3e3f	-0.012343942
128	0xbcfd0533	-0.030886268
129	0xbcbb1299	-0.022836016
130	0xbe9a18a8	-0.30096936
131	0x3e168022	0.14697316
132	0x3db149d8	0.08656663
133	0xbe415857	-0.18881355
134	0xbe3ed11e	-0.1863446
135	0x3b857c1c	0.004073633
136	0x3cfa008a	0.030517835
137	0xbd67e41f	-0.056614038
138	0x3cb2f294	0.021844186
139	0x3dc8f5ba	0.098124936
140	0xbcf560b2	-0.029953334
141	0x3ce5bc1f	0.028043805
142	0x3d90c481	0.0706873
143	0xbe3321d6	-0.17493376
144	0xbe482d09	-0.1954843
145	0x3dedfe68	0.1162079
146	0x3e3db15b	0.18524687
147	0xbc73824e	-0.01486261
148	0x3e23a5a8	0.15981162
149	0xbc3b492b	-0.011431019
150	0x3d7b1ed1	0.061308686
151	0xbc3935ab	-0.011304299
152	0xbdbe8666	-0.09302978
153	0xbcef24fb	-0.029192438
154	0xbd95611d	-0.072939135
155	0x3e4e4863	0.20144801
156	0xbd30fc27	-0.04320922
157	0xbe1764c0	-0.14784527
158	0x3e2ef975	0.17087348
159	0xbcb5575e	-0.022136386
160	0xbda54699	-0.08070106
161	0x3d854d33	0.06508865
162	0xbcdd47f4	-0.027011849
163	0x3dc6ddb8	0.09710258
164	0x3dad35c5	0.08457521
165	0x3ccc67db	0.024951866
166	0xbd91c92f	-0.07118451
167	0xbcf70349	-0.030152934
168	0x3df7333f	0.12070321
169	0xbe785a78	-0.24253261
170	0x3d8baa59	0.068196006
171	0x39af5c90	0.00033447566
172	0x3dba9ba2	0.09111716
173	0xbe273da8	-0.16332114
174	0xbd00b0cc	-0.031418607
175	0xbcc7e0a4	-0.02439911
176	0x3de40987	0.1113463
177	0x3cacd063	0.02109546
178	0xbdca8b26	-0.09889822
179	0xbe3a2345	-0.18177517
180	0xbc4b068f	-0.0123917
181	0x3c6c6d57	0.0144303655
182	0x3e086735	0.1332062
183	0xbdcae12e	-0.09906231
184	0x3deab6d0	0.1146065
185	0x3e4bc5d5	0.19899686
186	0xbd2dc5e3	-0.042425048
187	0x3d02fd13	0.03197963
188	0x3d973820	0.07383752
189	0x3d839bde	0.06426214
190	0xbe77a193	-0.2418273
191	0xbde20ec4	-0.110379726
192	0x3d173ed1	0.03692514
193	0xbd9f2fca	-0.07772787
194	0xbe115364	-0.14191967
195	0x3de0488f	0.109513395
196	0x3dee455f	0.11634325
197	0xbde11ab0	-0.10991418
198	0x3e51cb31	0.20487668
199	0xbcc1656a	-0.023607928
200	0xbdb09c18	-0.086235225
201	0x3c61f06c	0.013790231
202	0xbd93b2fd	-0.07211874
203	0x3c6b4a21	0.014360935
204	0x3c8fd89e	0.017559346
205	0x3dff1d61	0.124567755
206	0xbc20d68f	-0.00981678
207	0x3e26637c	0.16248888
208	0x3be13e20	0.006873861
209	0xbe703049	-0.2345592
210	0xbd83ae90	-0.064297795
211	0xbd2de2df	-0.04245269
212	0x3d9c6ae8	0.07637578
213	0x3d3e02c8	0.04638937
214	0xbd3e10bb	-0.046402674
215	0x3d421c8e	0.047390513
216	0xbdaecdad	-0.08535323
217	0xbe06a2cc	-0.1314804
218	0xbd6be802	-0.057594307
219	0xbdbeb38f	-0.09311592
220	0x3d2d3553	0.042287182
221	0x3e0704bf	0.13185404
222	0x3d5c1f39	0.053740714
223	0x3e332328	0.1749388
224	0x3dbfafd9	0.09359712
225	0xbe23e228	-0.1600424
226	0x3e38f1ec	0.18061036
227	0x3e56a202	0.20960239
228	0x3dc60489	0.09668834
229	0xbb54265d	-0.00323715
230	0x3c340507	0.010987527
231	0x3ba59e82	0.005054296
232	0x3c87b818	0.016567275
233	0xba4cedcf	-0.00078174187
234	0x3de7c611	0.11317075
235	0xbd35f00c	-0.04441838
236	0x3de21933	0.110399626
237	0x3d582623	0.052770745
238	0xbcd35882	-0.02579904
239	0x3e1a3c1f	0.15061997
240	0x3d00f597	0.031484213
241	0xbb51ba81	-0.0032002034
242	0x3d8e9058	0.06961125
243	0xbe1ab50f	-0.15108131
244	0x3d431559	0.04762778
245	0x3d858168	0.06518823
246	0x3dddd971	0.10832489
247	0x3d160ec0	0.03663516
248	0xbc0fcdcb	-0.008777092
249	0xbd94915e	-0.07254289
250	0x3d1b7db0	0.03796166
251	0xbd96816d	-0.07348905
252	0xbdf058c0	-0.11735678
253	0x3d3ff4b7	0.046864238
254	0x3e572905	0.21011741
255	0x3da691c5	0.08133272

bias_ih_l0 f4 [400]
0	0x3e3417ee	0.17587253
1	0x3e1b8b23	0.15189795
2	0x3d4b9f0a	0.04971222
3	0x3c42e57e	0.0118955355
4	0x3dba05d6	0.09083144
5	0x3d85808d	0.0651866
6	0x3d7238b3	0.059136104
7	0x3de3e528	0.111276925
8	0x3da0ce14	0.07851806
9	0x3eb17c05	0.34664932
10	0xbd87cce8	-0.0663088
11	0x3d639205	0.055559177
12	0x3c5784c2	0.0131542105
13	0x3cfb8787	0.030704273
14	0x3da34ba2	0.0797341
15	0x3db9da69	0.090748616
16	0xbd01ea95	-0.031717855
17	0x3c2661a1	0.0101551125
18	0x3d9df929	0.07713539
19	0x3e010983	0.12601285
20	0x3d57da9b	0.052698713
21	0x3d1e5b4b	0.038661283
22	0x3e08f8c3	0.13376145
23	0xbd013feb	-0.031555098
24	0x3d34d980	0.044152737
25	0x3e9ccac8	0.3062346
26	0x3e8b5af1	0.2721782
27	0xbd53b6d7	-0.05168804
28	0xbd5d1c6a	-0.053982176
29	0x3d0cd3e2	0.034381755
30	0x3e26ce98	0.16289747
31	0x3d5d88e7	0.05408564
32	0xbcdc38be	-0.026882526
33	0x3e36620e	0.17810842
34	0x3dd25c82	0.10271551
35	0x3dd5d9ac	0.10441908
36	0x3d58dc00	0.052944183
37	0xbcf56451	-0.029955061
38	0x3dbfbc21	0.093620546
39	0x3e2e6fed	0.17034884
40	0x3c765f55	0.015037377
41	0xbd6948ea	-0.056954302
42	0x3e62ef70	0.2216165
43	0x3c42a403	0.011879924
44	0x3da3c9f1	0.07997502
45	0xbd64139b	-0.05568276
46	0x3986bf63	0.00025701066
47	0x3d208da6	0.039197586
48	0x3db06b3c	0.08614203
49	0xbca9ff33	-0.020751571
50	0x3d041b83	0.0322528
51	0x3de36c61	0.11104656
52	0x3d9bb602	0.076030746
53	0x3d27cfa9	0.040969525
54	0x3e905983	0.28193292
55	0x3d29e383	0.041476738
56	0x3e3e06f5	0.18557341
57	0x3d16d858	0.036827415
58	0x3c001a46	0.007818764
59	0xbd35f391	-0.044421736
60	0xbc9e1aa3	-0.01929981
61	0x3ddb0dfd	0.106960274
62	0x3e058300	0.13038254
63	0x3cfe170c	0.031016849
64	0x3ddb136a	0.10697062
65	0xbd56d01c	-0.052444562
66	0x3c72566b	0.014791111
67	0x3e4b666c	0.1986329
68	0x3d0f5d95	0.035001356
69	0xbd1505c9	-0.03638247
70	0x3e5d7b2b	0.21629016
71	0xbd23bca8	-0.03997484
72	0xbdbc0bbc	-0.09181926
73	0x3e042e1a	0.12908211
74	0x3d2b6615	0.0418454
75	0xbda65223	-0.08121135
76	0xbb6aa067	-0.0035801174
77	0x3da346c9	0.079724856
78	0x3dfc44d0	0.123178124
79	0xbd820466	-0.06348495
80	0xbd4b3624	-0.04961218
81	0x3d461e54	0.048368767
82	0x3dc71233	0.09720268
83	0x3ddde68c	0.10834989
84	0xbc310fd5	-0.010806997
85	0x3dc0b8ab	0.094102226
86	0x3d8c8e60	0.068630934
87	0x3c0721ab	0.008247773
88	0x3d3eaf9d	0.046554197
89	0xbd57ad6f	-0.052655634
90	0xbb6da59c	-0.003626204
91	0x3e8cb91d	0.2748498
92	0x3e258297	0.16163097
93	0x3d16b003	0.03678895
94	0xbc962002	-0.01832581
95	0x3dbc028b	0.091801725
96	0x3da6a3a3	0.0813668
97	0xbde53b5e	-0.11192964
98	0x3d8e5240	0.06949282
99	0xbcb97eb1	-0.022643419
100	0xbdbd7e92	-0.09252657
101	0xbc39f5b6	-0.011350086
102	0xbc3618ab	-0.01111428
103	0xbd50a42c	-0.050937817
104	0x3d40e946	0.047097467
105	0xbc9c55e9	-0.019083934
106	0x3d9d33df	0.07675909
107	0x3dc574fb	0.09641453
108	0x3d7c108c	0.061539218
109	0xbd7404c1	-0.059574846
110	0xbcae15e0	-0.021250665
111	0x3d83549b	0.064126216
112	0xbb5b7250	-0.0033484884
113	0xbdbe410f	-0.09289753
114	0x3aea7352	0.0017887151
115	0xbd8f6dcd	-0.07003365
116	0xbd806a18	-0.06270236
117	0x3d857be1	0.06517769
118	0x3e0d44fd	0.13795848
119	0x3e1d6edb	0.1537432
120	0xbbaf709c	-0.0053540003
121	0xbdc0ed0b	-0.09420212
122	0xbca7aa9c	-0.020467095
123	0x3b245062	0.0025072326
124	0x3dad718e	0.084689245
125	0xbd8e130f	-0.06937229
126	0xbd03d060	-0.032181144
127	0xbe251cd5	-0.1612428
128	0x3d563543	0.052296888
129	0xbc9e82cf	-0.019349484
130	0x3ca94ac6	0.020665538
131	0xbde33c41	-0.11095477
132	0x3df059ea	0.117359
133	0xbd0a41a0	-0.03375399
134	0x3e13a95e	0.14420077
135	0xbda61bf6	-0.08110802
136	0x3ccc6b2e	0.024953451
137	0x3df19220	0.11795449
138	0xbd4be04d	-0.049774457
139	0x3d970aca	0.07375105
140	0x3d2f84a0	0.04285109
141	0xbca7bfa4	-0.020477124
142	0x3de1d086	0.11026101
143	0x3df85784	0.12126067
144	0x3ce9cfdb	0.028541496
145	0x3de9d470	0.11417472
146	0xbdf1a24a	-0.11798532
147	0x3d9671b2	0.073459044
148	0x3c31b346	0.010845965
149	0x3d12d923	0.03585161
150	0xbd3c9320	-0.046038747
151	0x3db3dc76	0.08782284
152	0xbd59e250	-0.053194344
153	0xbd9a28ba	-0.07527299
154	0xbd030cec	-0.031994745
155	0x3e08b595	0.13350518
156	0x3d0419bf	0.032251116
157	0xbd350224	-0.044191495
158	0x3b476731	0.0030426497
159	0xbd7be3df	-0.06149661
160	0xbcb589bc	-0.022160403
161	0xbdc67d65	-0.09691886
162	0xbd8b5255	-0.06802813
163	0x3df438fa	0.1192493
164	0x3dae586f	0.08512961
165	0xbd0ab8e7	-0.033867743
166	0x3c5399c8	0.012915082
167	0xbd99bfe9	-0.07507307
168	0xbd58755e	-0.052846305
169	0x3da370fe	0.07980536
170	0x3d0813e2	0.033222087
171	0xbd8e4de9	-0.06948454
172	0xbd194a80	-0.037424564
173	0x3e01d4a1	0.12678768
174	0x3c333a66	0.010939216
175	0xbce00256	-0.027344864
176	0x3e51f3a0	0.20503092
177	0xbddf5fcc	-0.10906944
178	0x3ccc59d1	0.024945172
179	0xbd2d1f67	-0.042266276
180	0xbc9069e5	-0.01762862
181	0x3d8e7c65	0.0695732
182	0x3c7bb2a2	0.015362414
183	0x3e2b58d7	0.16733108
184	0x3cc93cfd	0.024565214
185	0x3ddbd6f5	0.10734359
186	0xbd4e6204	-0.050386444
187	0x3e13b9df	0.14426373
188	0x3dae15b1	0.08500231
189	0x3d83023b	0.0639691
190	0x3d80abd4	0.062827736
191	0xbdbd940a	-0.09256752
192	0x3970fa57	0.00022981442
193	0x3e1526ee	0.14565632
194	0x3df9308d	0.121674635
195	0xbbf79399	-0.007555437
196	0x3db30d22	0.08742739
197	0x3ea2e0a1	0.31812003
198	0x3dfcd1cb	0.12344702
199	0xbd233e79	-0.0398545
200	0x3e0b5d40	0.13609791
201	0x3ba21435	0.0049462565
202	0x3ba52d8a	0.005040829
203	0x3dbc0ff5	0.09182731
204	0xbdcf6846	-0.101273105
205	0x3e1d074e	0.15334818
206	0x3d94ce64	0.072659284
207	0x3d9a80f5	0.07544128
208	0x3da87b2c	0.08226618
209	0xbc4340ee	-0.011917336
210	0xbd8e3704	-0.06944087
211	0x3d1468f2	0.036232896
212	0x3d3d9980	0.046288967
213	0xbce89531	-0.028391453
214	0x3d5ec16d	0.054383684
215	0x3c6bc298	0.0143896565
216	0xba9b126a	-0.0011831049
217	0xbd990e83	-0.07473471
218	0xbd44f590	-0.04808575
219	0xbc325736	-0.0108850505
220	0x3d8aee78	0.067837656
221	0x3d1b65c8	0.037938863
222	0x3afcb0db	0.0019278781
223	0x3db386e4	0.08765963
224	0x3d1a02bf	0.037600275
225	0xbd0fb639	-0.03508589
226	0x3c867c0e	0.016416576
227	0xbc9bc86d	-0.019016469
228	0x3da00066	0.07812576
229	0xbddee9af	-0.10884415
230	0x3d84fc27	0.06493407
231	0xbacdd89d	-0.0015704815
232	0x3d02a6fe	0.031897537
233	0x3cd839fd	0.026394838
234	0xbe0d3fd9	-0.13793887
235	0x3c8cae61	0.017172994
236	0xbdd3b0a3	-0.10336425
237	0xbd21c9a0	-0.039498925
238	0xbd8a014d	-0.06738529
239	0x3c06a3c9	0.00821776
240	0xbc690cb0	-0.014224216
241	0xbc1df8d8	-0.0096418485
242	0xbc9bcc72	-0.019018386
243	0xbdeaf74a	-0.11472948
244	0xbd97b08c	-0.074067205
245	0xbd45edf5	-0.048322637
246	0xbdee1183	-0.11624434
247	0x3be475d0	0.006972052
248	0xbcbf723b	-0.023369899
249	0x3cf6771d	0.030086095
250	0x3d835382	0.06412412
251	0x3dd0a80e	0.10188304
252	0x3cb495f8	0.022044167
253	0x3d491094	0.049088076
254	0x3b60d97d	0.003430932
255	0xbc7dcbb3	-0.01549046

bias_hh_l0 f4 [400]
0	0x3e280559	0.1640829
1	0x3dc4c58c	0.096079916
2	0x3cd685f7	0.026186926
3	0xbe374097	-0.17895733
4	0x3e21ff49	0.1582004
5	0x3d96c9b9	0.07362694
6	0xbd4ffc40	-0.050777674
7	0xbc860058	-0.016357586
8	0xbad4be60	-0.0016231053
9	0x3e88eaae	0.26741546
10	0x3dd25646	0.102703616
11	0x3dffbdbc	0.12487361
12	0x3e1e8f18	0.15484273
13	0xbbb73797	-0.0055913436
14	0xbd2604a5	-0.040531773
15	0xbd7b4d3c	-0.061352953
16	0xbdb40e38	-0.087917745
17	0xbcaf3073	-0.021385407
18	0xbc9c0494	-0.019045152
19	0x3df74847	0.12074333
20	0x3dcc39d1	0.09971965
21	0x3e0a36fb	0.13497536
22	0x3e027942	0.12741569
23	0xbc6eeebf	-0.014583289
24	0x3de9041a	0.113777354
25	0x3e85a3e0	0.2610159
26	0x3e9113f6	0.2833554
27	0xbc8e1f2b	-0.017348846
28	0xbcd4c211	-0.025971444
29	0x3e368105	0.17822655
30	0x3c7a59f8	0.015280239
31	0x3d1fdf0f	0.039031085
32	0xbdcf6310	-0.101263165
33	0x3e5bfacc	0.2148239
34	0x3d04b869	0.03240243
35	0x3def5132	0.11685409
36	0x3da0a8c8	0.078446925
37	0x3d3705be	0.04468321
38	0x3de299d0	0.11064494
39	0x3cb78491	0.02240208
40	0xbdd0fc03	-0.102043174
41	0xbd806494	-0.06269184
42	0x3ebc6fa2	0.3680392
43	0x3d8f51cb	0.06998023
44	0x3d9e0cc9	0.07717282
45	0x3e002dab	0.12517421
46	0x3d526288	0.051363498
47	0x3d7b3536	0.061330043
48	0x3dac46a4	0.08411911
49	0x3d451fca	0.04812602
50	0x3dd51d79	0.10406012
51	0x3c38f5db	0.011289085
52	0x3e42af01	0.19012071
53	0xbbd1a01d	-0.006397261
54	0x3e67c9c8	0.22635567
55	0x3da48e88	0.08034998
56	0x3e088c1f	0.13334702
57	0xbcf409c1	-0.029789807
58	0x3d066503	0.032811176
59	0x3d61e879	0.055153344
60	0x3deca650	0.11555159
61	0x3e345a71	0.17612626
62	0x3e35c8a1	0.17752315
63	0x3de7072c	0.11280665
64	0x3de70a83	0.11281302
65	0xbd053ad3	-0.032526802
66	0x3dad9037	0.084747724
67	0x3e87248d	0.26395074
68	0xbc533343	-0.01289064
69	0x3dd23509	0.10264022
70	0x3e808290	0.2509961
71	0xbd9e78a4	-0.07737854
72	0xbd9d3813	-0.07676711
73	0xbcd37785	-0.025813827
74	0xbd02cb25	-0.031932015
75	0xbc848b26	-0.016179632
76	0x3d1c6b56	0.0381883
77	0xbda17963	-0.07884481
78	0x3de7cd59	0.11318464
79	0xbd3368ea	-0.043801226
80	0xbb39935d	-0.0028316595
81	0x3c38fe58	0.011291109
82	0x3e380545	0.1797076
83	0x3d19fccc	0.0375946
84	0xbd3aabfc	-0.045574173
85	0xbd27ae74	-0.040937856
86	0xbb8360c2	-0.004009337
87	0x3e067fc4	0.13134676
88	0xba42ce6e	-0.0007431273
89	0x3d7d1fd4	0.06179793
90	0xbd41e757	-0.047339763
91	0x3e38da83	0.18052106
92	0xbbe8f29f	-0.007109001
93	0x3d44c19c	0.048036203
94	0x3d5edc85	0.054409523
95	0x3dd1f4a2	0.10251738
96	0xbcd7b03e	-0.026329156
97	0xbce62f31	-0.028098674
98	0x3e259860	0.16171408
99	0x3db68a60	0.08913112
100	0x3daf0243	0.08545353
101	0x3dc791bb	0.09744593
102	0xbce2e671	-0.027697774
103	0x3c988176	0.01861642
104	0x3dca382c	0.09873995
105	0xbc26badb	-0.010176386
106	0x3d92e430	0.071724296
107	0x3dd7c57a	0.105357125
108	0xbdaa65df	-0.083202116
109	0xbd43977f	-0.0477519
110	0x3d8eaf63	0.06967046
111	0x3dae2110	0.085024
112	0xbd6761cd	-0.056489754
113	0x3c907f53	0.017638838
114	0x3d6d0da3	0.057874333
115	0xbd8fc938	-0.07020801
116	0x3cb4098f	0.021977214
117	0x3e0cc766	0.1374794
118	0x3d11e103	0.03561498
119	0x3dca07ef	0.098647945
120	0xbcd1a2bd	-0.025590295
121	0x3d211409	0.039325748
122	0x3ce2d1d2	0.02768794
123	0xbd329fbe	-0.043609373
124	0x3e1e64f9	0.15468206
125	0xbc277b34	-0.010222245
126	0xbd98157e	-0.07425974
127	0xbd49d9e5	-0.049280066
128	0x3d3793e9	0.044818792
129	0x3d115569	0.035481844
130	0x3dc02a00	0.09383011
131	0x3a9ded83	0.0012048933
132	0xbb7bd11d	-0.0038424202
133	0x3cae2d21	0.021261754
134	0x3d5975e1	0.053090934
135	0xbd42b135	-0.04753228
136	0xbd870fb6	-0.065947935
137	0x3e2583b2	0.16163519
138	0x3ddc9530	0.10770643
139	0xbd8d128e	-0.06888305
140	0x3c2e1753	0.010625678
141	0x3db3e227	0.087833695
142	0x3e01d3d1	0.12678458
143	0x3d931bdd	0.07183049
144	0x3dbabd14	0.09118095
145	0x3d87b895	0.06627003
146	0xbe15144a	-0.14558521
147	0x3d7b31b0	0.061326683
148	0xbd1678dd	-0.036736358
149	0xbdd6ab96	-0.10481946
150	0x3d9ec382	0.07752134
151	0x3abba27d	0.0014315393
152	0x3d72b805	0.059257526
153	0x3cc2974a	0.02375378
154	0xbd2e1306	-0.04249861
155	0x3e0911e1	0.13385727
156	0x3db3c6c2	0.087781444
157	0xbd5d912e	-0.054093532
158	0x3e0a8e0e	0.13530752
159	0x3b35148d	0.0027630657
160	0xbd399504	-0.045308128
161	0x3d4f2c49	0.050579343
162	0xbe06e7cd	-0.13174362
163	0xbd0cbd30	-0.03436011
164	0x3caef9e6	0.021359395
165	0x3c1939a9	0.009352126
166	0x3d483df0	0.048887193
167	0x3d142895	0.036171515
168	0xbd3f7754	-0.04674466
169	0x3e0e3e55	0.13890965
170	0xbcca6b09	-0.024709241
171	0xbc16dd8d	-0.009208095
172	0xbdb68a03	-0.089130424
173	0x3dbd0f50	0.09231436
174	0xbda8e41c	-0.082466334
175	0xbd6f01d1	-0.05835134
176	0x3e714383	0.2356091
177	0xbd4583d4	-0.048221424
178	0x3d98a5ce	0.074535
179	0x3df6cbaf	0.12050568
180	0xbd06bff5	-0.03289791
181	0xbc31a0d7	-0.01084157
182	0xbdff31b7	-0.12460654
183	0xbc2ccb43	-0.010546508
184	0x3e01b964	0.12668377
185	0x3df9c708	0.12196165
186	0x3c4f3ddb	0.012649025
187	0x3dc94e8e	0.09829436
188	0x3d5619f8	0.05227086
189	0xbd965062	-0.073395506
190	0xbdac8204	-0.08423236
191	0xbb326729	-0.0027222133
192	0x3cdcbb8b	0.026944896
193	0x3c131ee0	0.008979529
194	0x3b867c74	0.0041041914
195	0x3d0f2de1	0.034955863
196	0x3dca32c5	0.09872965
197	0x3e3d39a9	0.18479027
198	0xbd58d774	-0.052939847
199	0xbc56702e	-0.013088269
200	0x3c4a5651	0.012349681
201	0xbd7b93ea	-0.06142036
202	0x3d3b055b	0.045659404
203	0xbd670eb0	-0.05641049
204	0xbdd7a649	-0.10529763
205	0x3dff3fc1	0.12463332
206	0x3d91f10a	0.07126053
207	0xbde8935f	-0.11356234
208	0x38b6a3a1	8.7089145e-05
209	0xbdb8e57a	-0.09028144
210	0xbdff45c6	-0.1246448
211	0x3df04d7a	0.117335275
212	0x3d42d980	0.047570705
213	0x3d0d7168	0.03453198
214	0x3da91046	0.08255057
215	0x3d3f09de	0.04664027
216	0x3d8cc4bf	0.06873464
217	0xbb6c4273	-0.003605035
218	0xbc822b27	-0.015889717
219	0xbd1f6528	-0.03891483
220	0xbdfb34ed	-0.12265954
221	0x3d46ff56	0.04858335
222	0x3e0861b3	0.1331852
223	0x3a1acb2f	0.00059049105
224	0x3cc2640e	0.02372935
225	0xbde9bcb5	-0.11412946
226	0x3dad1ea7	0.08453112
227	0xbb9dfefc	-0.0048216563
228	0xbd8270d7	-0.06369179
229	0xbbb054f8	-0.005381223
230	0xbd5a18b1	-0.053246204
231	0x3d9d88ef	0.07692134
232	0x3dad8b1f	0.08473801
233	0xbd5c975c	-0.053855285
234	0xbe2d50fb	-0.16925423
235	0x3d786b80	0.060649395
236	0xbdca598a	-0.098803595
237	0x3af32883	0.0018551502
238	0x3cc684dc	0.024233274
239	0x3c371df6	0.011176577
240	0x3c079904	0.008276228
241	0xbe131a80	-0.14365578
242	0x3e1c4933	0.15262298
243	0xbd27a440	-0.040928125
244	0xbe1def41	-0.154233
245	0x3df93ecb	0.1217018
246	0x3bbaeaae	0.0057042455
247	0x3d1028cb	0.035195153
248	0xbcc10aca	-0.023564715
249	0xbb4d561d	-0.0031331845
250	0x3de4ac68	0.111656964
251	0x3d94af07	0.07259946
252	0xbc9017b1	-0.017589422
253	0x3dd8ba50	0.10582411
254	0x3c9db836	0.019252878
255	0x3d2f06f0	0.042731225

weight_ih_l1 f4 [400, 100]
0	0xbdf27cb6	-0.11840193
1	0x3c92b687	0.017909301
2	0xbd9a2f47	-0.07528549
3	0x3d928df4	0.07155982
4	0xbc6555f8	-0.013997547
5	0xbb7de1e1	-0.003873937
6	0x3c96b0f2	0.018394921
7	0x3d490b87	0.04908326
8	0xbd838c6f	-0.0642327
9	0x3d85aa15	0.06526581
10	0xbdce9934	-0.10087815
11	0x3ca9c6c5	0.020724664
12	0x3ddf819e	0.109133944
13	0xbc2e647a	-0.010644073
14	0xbda6e986	-0.0815001
15	0x3da24c8e	0.07924758
16	0xbd2743c0	-0.040836096
17	0x3d66dd5c	0.05636345
18	0x3d103f21	0.035216454
19	0xbd68ecec	-0.05686657
20	0xbd5e5f51	-0.05429012
21	0xbd537dd7	-0.051633682
22	0xbcbbe117	-0.02293448
23	0x3dabb988	0.08384997
24	0x3d26eeae	0.040754966
25	0xbd9f9481	-0.07791997
26	0xbd535848	-0.051597863
27	0x3db6894a	0.089129046
28	0xbd941eb6	-0.0723242
29	0x3cddd150	0.027077347
30	0x3cce93dc	0.02521699
31	0x3d5729e3	0.05253018
32	0xbc6fdb44	-0.014639679
33	0xbd913088	-0.07089335
34	0xbdbb6f78	-0.0915212
35	0x3dcee80e	0.10102855
36	0xbd418e36	-0.047254764
37	0xbdb37ec0	-0.0876441
38	0xbca195fa	-0.019724835
39	0xbd029d7c	-0.03188847
40	0x3d2f79b4	0.042840675
41	0x3def8213	0.116947316
42	0x3cc28646	0.023745667
43	0xbd0acffa	-0.03388975
44	0xbc7985db	-0.015229668
45	0x3a8fc6d3	0.0010969288
46	0x3d031a29	0.03200737
47	0xbd1775cf	-0.036977585
48	0x3d470227	0.048586037
49	0xbdd14465	-0.10218123
50	0xbd455436	-0.048176013
51	0xbd397648	-0.045278817
52	0x3d818f58	0.06326169
53	0xbda77e31	-0.08178366
54	0x3d5cf7ab	0.053947132
55	0xbd5db7d5	-0.054130394
56	0x3d6940bc	0.0569465
57	0xbd940d38	-0.07229084
58	0x3d13bf02	0.03607083
59	0xbc94b468	-0.01815243
60	0xbc00f20d	-0.007870209
61	0x3a3b5677	0.0007146368
62	0x3d9b5c9d	0.07586024
63	0x3db63e51	0.08898605
64	0x3d822b57	0.06355923
65	0x3db53c07	0.0884934
66	0x3c8b7a92	0.01702622
67	0xbd378733	-0.04480667
68	0xbd4c96ad	-0.049948383
69	0xbdd5be4b	-0.10436686
70	0x3cc436cd	0.023951912
71	0x3c2c62c6	0.010521596
72	0x3cec163b	0.028819194
73	0xbc570ae4	-0.013125155
74	0x3d5e1296	0.054216944
75	0xbcbf4627	-0.023348881
76	0x3ddd49b9	0.10805077
77	0x3d9c09a5	0.07619027
78	0xbdd9a0be	-0.10626362
79	0xbc2478b4	-0.0100385435
80	0x3c8ec309	0.017426984
81	0xbd6adb12	-0.057337828
82	0x3dcdc288	0.100468695
83	0xbad99674	-0.0016600625
84	0x3dade6ab	0.08491262
85	0x3cd1cb1b	0.025609544
86	0x3de2a3ce	0.110663995
87	0x3d02d763	0.03194369
88	0x3d84e245	0.0648847
89	0x3ce324d7	0.027727528
90	0x3c9f9f03	0.019485002
91	0xbd2ab95a	-0.04168067
92	0x3d7da4ef	0.06192487
93	0xbb881971	-0.0041534235
94	0xbd79d0f5	-0.060990293
95	0xbc151f02	-0.009101631
96	0x3cff7df4	0.031187989
97	0xbcac6f7d	-0.021049256
98	0x3ca22b13	0.01979593
99	0x3d6d260c	0.057897612
100	0xbde80d5d	-0.11330674
101	0x3d5cba09	0.053888354
102	0xbcfbecfd	-0.030752653
103	0xbd8e81f3	-0.069583796
104	0x3d08847a	0.033329464
105	0x3de58c7c	0.11208436
106	0x3def3d2b	0.11681589
107	0x3d2d7381	0.04234648
108	0x3d7dacb3	0.061932277
109	0xbdf57dba	-0.11986871
110	0x3d36956f	0.044576105
111	0x3dfc36a1	0.12315107
112	0x3d5a94e3	0.053364646
113	0x3d6064ba	0.05478356
114	0x3df16fd6	0.11788909
115	0x3d8e02e0	0.06934142
116	0x3d05c987	0.032662895
117	0xbdf21821	-0.118210085
118	0xbc1773d6	-0.009243926
119	0xbdbb985a	-0.09159918
120	0xbd53ca74	-0.051706746
121	0xbd991651	-0.0747496
122	0x3d65c0c9	0.056092057
123	0x3d6cf193	0.05784757
124	0xbb94a59e	-0.0045363447
125	0x3d804314	0.06262794
126	0xbe018a9d	-0.12650533
127	0x3d3b861f	0.045782205
128	0x3dc6a6dd	0.096997954
129	0x3dd51306	0.10404019
130	0xbde850f4	-0.113435656
131	0xbc11611c	-0.00887325
132	0x3cf369b8	0.029713497
133	0xbd226988	-0.039651424
134	0xbdacd8cf	-0.084397905
135	0xbd1efbfb	-0.038814526
136	0xbdbf6490	-0.09345353
137	0x3d109a41	0.035303358
138	0xbc8ea455	-0.017412344
139	0x3c2d0764	0.010560844
140	0x3d1212b8	0.035662383
141	0x3d7616e3	0.06008042
142	0xbde814ea	-0.11332114
143	0xbde5d587	-0.11222368
144	0x3d312fd2	0.043258496
145	0xbd893710	-0.066999555
146	0x3d9d5ff1	0.07684315
147	0x3bc73ca8	0.006080229
148	0x3c91344d	0.017725134
149	0x3d7a7d02	0.061154373
150	0x3dd53f7c	0.10412499
151	0x3cac76b1	0.02105269
152	0x3cbb1b91	0.022840293
153	0x3a9e01dd	0.0012054999
154	0xbcd5b182	-0.026085619
155	0x3de3a109	0.111146994
156	0x3dd93dc1	0.10607482
157	0xbb84615b	-0.004039926
158	0xbd505aab	-0.050867718
159	0x3c4d55e8	0.012532689
160	0x3cc78a21	0.024357857
161	0xbafb3ee5	-0.0019168524
162	0xbce740e8	-0.028229192
163	0x3ca6944e	0.020334389
164	0xbdc6ae13	-0.09701171
165	0xbc88cf07	-0.01670028
166	0xbdc81028	-0.097687066
167	0xbc9b9e73	-0.018996453
168	0xbd308c9e	-0.043102853
169	0xbcce69b7	-0.025196893
170	0x3c9aa378	0.018876776
171	0xbc86b3c6	-0.016443145
172	0xbc36a53c	-0.011147793
173	0xbdf3c055	-0.11901919
174	0x3d5865d3	0.052831482
175	0xbdccee28	-0.10006362
176	0x3c9cfe00	0.019164085
177	0xbc87d99b	-0.016583255
178	0xbde2beca	-0.110715464
179	0xbd6e74cf	-0.058216866
180	0xbdc9c203	-0.09851458
181	0xbd9182ef	-0.07105052
182	0x3c91795b	0.017758062
183	0x3d3ebe6b	0.046568315
184	0x3cfc1b77	0.030774815
185	0xbd714546	-0.058903955
186	0xbcd5ac2d	-0.026083076
187	0x3db3d68e	0.087811574
188	0xbc14278f	-0.009042635
189	0x3d5c4217	0.053773966
190	0x3d7c7e80	0.061644077
191	0xbd93ec74	-0.07222834
192	0xbdd07c33	-0.10179939
193	0x3daac2fc	0.083379716
194	0xbd40f37a	-0.047107197
195	0x3d51fd1d	0.05126678
196	0x3dc48531	0.09595717
197	0xbdb25724	-0.08708027
198	0x3d34c084	0.04412891
199	0xbc86ccda	-0.016455103
200	0xbe3360c1	-0.17517377
201	0x3d74a33d	0.05972599
202	0xbe1e1b84	-0.15440184
203	0xbe110a51	-0.14164092
204	0xbd819bad	-0.06328521
205	0xbd4a3967	-0.04937115
206	0xbcdb1d5f	-0.026747404
207	0x3cb04a15	0.0215197
208	0xbdfa6bb0	-0.12227571
209	0xbb8f9969	-0.0043823016
210	0xbab53469	-0.0013824824
211	0xbda2db27	-0.07951956
212	0x3ddc4984	0.107562095
213	0x3c6366b8	0.0138794705
214	0x3d9956b7	0.07487243
215	0xbd61669f	-0.055029508
216	0x3e581052	0.21099976
217	0xbc7ef47e	-0.015561221
218	0x3dced9b6	0.10100119
219	0x3d1341c8	0.035951406
220	0x3d9aae83	0.07552817
221	0xbe50c326	-0.20386943
222	0x3e4687bd	0.19387718
223	0x3e0833ea	0.13301054
224	0x3d2f3813	0.042778086
225	0xbab49ae9	-0.0013779077
226	0x3d870e84	0.065945655
227	0xbde09994	-0.10966793
228	0x3e06193e	0.13095567
229	0x3eaa3ec9	0.33251026
230	0xbe27c896	-0.16385111
231	0x3b27e465	0.0025618311
232	0x3d9bf06a	0.07614215
233	0xbdcabe69	-0.09899599
234	0x3ca09af9	0.019605147
235	0x3ebfd5fc	0.37467945
236	0x3e20b4d0	0.15693974
237	0x3d83d602	0.06437303
238	0x3e21917d	0.15778156
239	0x3ec196d8	0.37810397
240	0x3ba89058	0.0051441602
241	0x3d7da72a	0.061927
242	0xbe98b0ee	-0.29822487
243	0xbbdb6825	-0.0066957646
244	0xbdaec751	-0.0853411
245	0x3c9b0f42	0.018928174
246	0x3d189400	0.03725052
247	0xbe02dffa	-0.12780753
248	0x3dadabe7	0.084800534
249	0xbdcbd56a	-0.09952815
250	0x3e16a82a	0.14712587
251	0x3d9fdc71	0.07805718
252	0xbde55a35	-0.11198846
253	0xbdae5026	-0.08511381
254	0x3e7e8a04	0.24857336
255	0x3d5afcb1	0.05346364

weight_hh_l1 f4 [400, 100]
0	0xbd456401	-0.048191074
1	0xbd72f3f4	-0.059314683
2	0x3c7eeeb8	0.015559845
3	0x3cbd49e3	0.023106521
4	0x3ce4c8e5	0.027927825
5	0x3cafc462	0.021455947
6	0x3dbec072	0.0931405
7	0x3dfb6c7c	0.12276551
8	0xbdde8fb9	-0.10867257
9	0xbd39fce3	-0.045407187
10	0x3db9e101	0.09076119
11	0xbdddd726	-0.10832052
12	0xbc31b130	-0.010845467
13	0x3d964089	0.07336528
14	0xbde6ed30	-0.11275709
15	0x3d0681d4	0.032838657
16	0xbc502e30	-0.012706324
17	0x3d9a995e	0.07548784
18	0xbe4a93c0	-0.19782925
19	0x3d7cf70b	0.061759036
20	0x3d306ea1	0.043074254
21	0x3cb558e0	0.022137105
22	0x3d5acba4	0.053416863
23	0x3c52e945	0.012872999
24	0xbb2329ff	-0.0024896858
25	0x3bedd6c9	0.0072582704
26	0x3d312844	0.04325129
27	0xbb36ed65	-0.0027912494
28	0xbdde041c	-0.108406276
29	0x3c3886f8	0.011262648
30	0xbd5bd3cd	-0.053668786
31	0x3dcb5b9d	0.09929583
32	0x3c8891a0	0.016671002
33	0xbddef316	-0.10886209
34	0xbd834af8	-0.064107835
35	0x3d9a7103	0.075410865
36	0x3d5cdfa2	0.05392421
37	0xbe02035f	-0.12696598
38	0x3d4114dc	0.047139034
39	0xbd1cfcd2	-0.038327046
40	0x3d90a946	0.07063536
41	0xbcad1114	-0.021126308
42	0xb9ad7895	-0.00033086972
43	0xbdab546a	-0.0836571
44	0x3baedd32	0.005336427
45	0xbd74d2ee	-0.05977147
46	0x3cd6c8b0	0.026218742
47	0x3df4b0d9	0.119477935
48	0xbdbc5aef	-0.09197032
49	0xbd89f63d	-0.06736419
50	0x3d631667	0.055441286
51	0x3cbb2f85	0.022849808
52	0x3c306653	0.0107665835
53	0x3ce3083c	0.027713887
54	0x3d035cac	0.0320708
55	0xbdcc8449	-0.09986169
56	0xbd5af2b7	-0.053454127
57	0xbdb343c3	-0.08753159
58	0x3d176620	0.03696263
59	0xbd1a3c96	-0.037655436
60	0x3cb45dcc	0.022017382
61	0xbdbfeb97	-0.09371107
62	0x3ddd0c28	0.10793334
63	0x3d314c5b	0.04328571
64	0x3c719521	0.014745028
65	0xbd27c7ee	-0.040962152
66	0x3d4c4665	0.04987182
67	0x3dfc733d	0.123266675
68	0x3d936f64	0.071989805
69	0x3df70aeb	0.12062629
70	0xbd9b03a7	-0.07569056
71	0x3c69b716	0.0142648425
72	0xbcf92dca	-0.030417342
73	0xbd753095	-0.059860785
74	0xbc6e5573	-0.01454674
75	0xbd95b1e2	-0.07309319
76	0x3db1debc	0.08685061
77	0xbd851536	-0.06498186
78	0x3cfc20b5	0.030777315
79	0x3d8d9bb3	0.06914463
80	0x3d9aafef	0.07553088
81	0x3d5178e2	0.051140673
82	0xbd9de2f7	-0.07709306
83	0x3dcf436c	0.101202816
84	0xbd1e8dae	-0.038709335
85	0x3d2a4712	0.041571684
86	0xbd9644bd	-0.073373295
87	0x3dafe6a3	0.08588912
88	0x3c843a46	0.016141068
89	0xbdf1fdaf	-0.118159644
90	0xbdcc5e82	-0.099789634
91	0xbd6e3c84	-0.05816318
92	0xbd05e861	-0.032692317
93	0x3d6603d8	0.05615601
94	0x3ce9e0cf	0.02854958
95	0x3dc62a82	0.096760765
96	0x3ccabcea	0.024748284
97	0x3c54ce5b	0.012988652
98	0xbd5e5a8c	-0.05428557
99	0x3d42c7c1	0.04755378
100	0x3cf781ee	0.030213322
101	0xbcee7fc5	-0.02911366
102	0xbd93377f	-0.071883194
103	0xbcf204e5	-0.02954335
104	0x3d814ece	0.06313859
105	0xbc27ac42	-0.010233941
106	0x3ccbfa2e	0.024899568
107	0x3d381df9	0.04495046
108	0xbd61c19a	-0.055116273
109	0x3dfd010b	0.123537146
110	0xbd658510	-0.0560351
111	0x3d463a1e	0.04839527
112	0xbdbfa618	-0.09357852
113	0xbba9a4e9	-0.0051771295
114	0xbdedc198	-0.11609191
115	0xbc92a36e	-0.017900195
116	0xbd83b9d1	-0.06431926
117	0xbd28642e	-0.041111164
118	0xbd95f92c	-0.073229164
119	0xbda61cfd	-0.08110998
120	0xbcce155d	-0.025156671
121	0xbd3e0783	-0.046393882
122	0x3d17a273	0.037020158
123	0x3d152a6c	0.03641741
124	0xbdc4591f	-0.09587311
125	0xbde1a0b0	-0.11016977
126	0xbd71cd68	-0.05903378
127	0x3be062e6	0.006847727
128	0x3c071c79	0.0082465345
129	0xbc077309	-0.008267173
130	0x3cfc4c94	0.030798234
131	0x3d29ffc3	0.04150368
132	0x3d0fec5e	0.035137527
133	0xbce78593	-0.028261935
134	0xbd3b9b74	-0.04580255
135	0xbd34f181	-0.04417563
136	0x3cd37606	0.025813114
137	0xbd34d797	-0.044150915
138	0xbc59c9b8	-0.013292722
139	0x3db900d9	0.09033365
140	0x3dad8714	0.0847303
141	0xbd420c27	-0.04737487
142	0xbdf0ebbc	-0.11763713
143	0xbbdda849	-0.006764446
144	0x3d8d05c8	0.06885868
145	0x3b75148e	0.0037396285
146	0xbdc2d0b7	-0.095124654
147	0xbb05eb3b	-0.0020434398
148	0xbd348ded	-0.044080663
149	0x3cde4f76	0.0271375
150	0x3cc01a13	0.023449933
151	0xbc76a9a5	-0.015055095
152	0x3ca373ed	0.019952739
153	0xbdf98265	-0.12183074
154	0x3d59892d	0.053109337
155	0x3d9f1d79	0.07769293
156	0xbc0da856	-0.008646091
157	0xbd937a0d	-0.07201014
158	0xbd9b2ccb	-0.07576903
159	0x3d9534c6	0.07285456
160	0x3d50988d	0.050926734
161	0xbd892ff5	-0.066986
162	0x3c8179e3	0.01580519
163	0xbd212735	-0.03934403
164	0x3d5bb874	0.053642705
165	0xbc0620df	-0.008186548
166	0x3da8e7cc	0.08247337
167	0x3cfac6ab	0.03061231
168	0x3e0e2ec9	0.13885035
169	0x3b3e7144	0.002905921
170	0x3d162c55	0.036663372
171	0x3baa2868	0.005192805
172	0xbcf90310	-0.030396968
173	0xbe01eb09	-0.12687315
174	0x3d157dc5	0.036496896
175	0x3d9baa07	0.076007895
176	0x3dad7609	0.08469779
177	0x3debd965	0.11516074
178	0x3d7659ca	0.060144223
179	0x3dce2428	0.1006549
180	0x3db4ae84	0.08822349
181	0xbcc9b283	-0.024621254
182	0x3c63a9e4	0.013895486
183	0x3db41c2e	0.08794437
184	0x3aa5efcd	0.0012659967
185	0xbda9f120	-0.08297944
186	0x3dc0db62	0.09416844
187	0xbcb44550	-0.022005707
188	0x3dac2e2a	0.084072426
189	0xbd91efc6	-0.07125811
190	0x3d84f2b6	0.06491606
191	0x3d71007a	0.058838345
192	0xbda1e50d	-0.07905016
193	0xbc5befa8	-0.013423838
194	0x3d8d20c4	0.06891015
195	0xbd6583c3	-0.05603386
196	0xbcffb766	-0.03121538
197	0x3c95b380	0.018274069
198	0x3dbc33f9	0.091896005
199	0x3d9b4a69	0.07582552
200	0xbd917ac7	-0.07103496
201	0xbcb83d0f	-0.022490053
202	0x3d9b3d8f	0.07580101
203	0xbcbaf694	-0.022822656
204	0x3e0ed9a8	0.13950217
205	0xbe2d7552	-0.16939285
206	0x3d993336	0.07480471
207	0x3c3275ef	0.010892375
208	0x3bd9287e	0.0066271415
209	0x3e1b9ae5	0.15195806
210	0x3dd97100	0.10617256
211	0xbc0cc70b	-0.008592377
212	0xbdb20d1f	-0.08693909
213	0x3d96da91	0.07365907
214	0x3cc65d96	0.024214547
215	0xbd9a6cde	-0.07540296
216	0x3d06aa51	0.03287727
217	0x3d031799	0.032004926
218	0x3ccba717	0.024859948
219	0xbe21c71e	-0.15798613
220	0x3daa12cf	0.08304369
221	0x3d198c19	0.037487123
222	0xbe064ece	-0.13115999
223	0xbdda6c79	-0.10665221
224	0xbcc73dfd	-0.02432155
225	0xbd3634bc	-0.044483885
226	0xbcc898d0	-0.02448693
227	0x3d144287	0.036196258
228	0xbde52c1a	-0.11190052
229	0xbd788495	-0.060673315
230	0x3d8f50c9	0.069978304
231	0xbb9c7a03	-0.004775287
232	0xbca2e30b	-0.019883653
233	0xbdc2a370	-0.095038295
234	0x3db362e5	0.08759097
235	0xbdf454f5	-0.11930267
236	0x3d8809bb	0.06642481
237	0x3daf7dd5	0.085689224
238	0x3d35e3e5	0.04440679
239	0xbcb8d092	-0.022560392
240	0x3d93bbe5	0.072135724
241	0x3d42219d	0.047395337
242	0xbddf7374	-0.10910693
243	0xbd05425a	-0.03253398
244	0x3dba5c41	0.09099627
245	0x3c474788	0.0121630505
246	0x3cf21fff	0.029556273
247	0x3d8d919d	0.06912539
248	0xbd598473	-0.05310483
249	0xbd64443c	-0.055729136
250	0xbe68077d	-0.22659107
251	0x3b919115	0.004442344
252	0xbcfa3c29	-0.030546265
253	0xbccf8f22	-0.025336806
254	0x3dc83d6f	0.097773425
255	0xbde734f6	-0.11289398

bias_ih_l1 f4 [400]
0	0xbd8c1f98	-0.068419635
1	0xbba787f5	-0.005112643
2	0x3d580ff5	0.052749593
3	0x3c2be27c	0.01049101
4	0x3c49e692	0.012323039
5	0xbd35c2b6	-0.044375144
6	0xbd43f2d4	-0.047839
7	0xbd816059	-0.06317205
8	0xbc6fcd2a	-0.014636317
9	0xbcbe21a2	-0.023209397
10	0xbcb88412	-0.022523914
11	0xbd1803b7	-0.037112918
12	0xbd985033	-0.07437172
13	0x3c778d61	0.015109391
14	0xbd2a8626	-0.04163184
15	0xbd2d11f7	-0.04225346
16	0xbd38b43f	-0.04509377
17	0x3df2d3cd	0.11856804
18	0x3b964036	0.0045852913
19	0x3db0b6c7	0.08628612
20	0xbd2fd624	-0.04292883
21	0xbca6efec	-0.020378076
22	0xbc810c69	-0.015752988
23	0x3d626eaf	0.055281337
24	0x3dfa7cb2	0.12230815
25	0xbd866a5d	-0.06563256
26	0x3da1adbd	0.07894466
27	0xbd78e7ba	-0.060767867
28	0x3d1af1e0	0.037828326
29	0xbd9cba74	-0.076527506
30	0x3d85ae07	0.06527334
31	0xbd671ea5	-0.05642571
32	0xbd8c274d	-0.068434335
33	0xbd8bc9c2	-0.068255916
34	0xbd3dc7a0	-0.046332955
35	0xbcebbb74	-0.028775908
36	0xbbfdacce	-0.007741547
37	0x3e83f4b7	0.2577264
38	0x3de0ddb1	0.10979784
39	0x3dee67a9	0.11640865
40	0x3c97573d	0.018474216
41	0x3c7fac51	0.015605048
42	0x3de4b0c1	0.11166526
43	0x3d6263f4	0.055271104
44	0x3d9ebd60	0.07750964
45	0xbcd5b10b	-0.026085397
46	0x3dec3b95	0.11534802
47	0x3d677976	0.05651232
48	0x3d83569e	0.06413005
49	0x3cf606c7	0.030032529
50	0x3da80814	0.08204666
51	0x3d945704	0.072431594
52	0x3da64280	0.081181526
53	0xbd812467	-0.06305771
54	0xbc16cf88	-0.009204753
55	0x3df7b5e8	0.12095243
56	0x3dd91461	0.1059959
57	0x39ed37a3	0.00045245615
58	0x3d81d7c1	0.0633998
59	0xbd8278f3	-0.063707255
60	0x3d0095a0	0.031392694
61	0x3db6e1cd	0.08929787
62	0x3b7b58f3	0.0038352578
63	0x3d16df8f	0.036834296
64	0x3cc85b48	0.024457589
65	0x3df71073	0.12063684
66	0x3b3b12f1	0.0028545226
67	0xbd297ea2	-0.041380532
68	0x3dfb3a99	0.12267036
69	0xbd395263	-0.045244586
70	0x3c588892	0.013216155
71	0x3bc09fe9	0.005878438
72	0x3d829cf0	0.0637759
73	0xbc909bec	-0.017652474
74	0xbd897622	-0.06711985
75	0x3d93cf1d	0.07217238
76	0x3ddb7a3d	0.107166745
77	0x3df0a592	0.1175033
78	0x3b70f4c0	0.0036766976
79	0x3dbf0bb0	0.09328401
80	0xbd84a024	-0.06475857
81	0xbc2fb7c2	-0.010724964
82	0x3b8c24a0	0.004276827
83	0xbcb52a10	-0.022114784
84	0x3cea07c6	0.02856816
85	0x3db450d4	0.08804479
86	0xbbdce431	-0.0067410697
87	0xbc5d393f	-0.013502418
88	0x3d0672d9	0.03282437
89	0x3dc1fb2b	0.094717346
90	0x3b20b93b	0.0024524468
91	0xbd3e980f	-0.046531733
92	0x3d9cca4b	0.07655772
93	0xbceb99e5	-0.028759906
94	0x3cdea688	0.027179018
95	0x3dd3ee85	0.10348228
96	0x3e0159c9	0.12631907
97	0x3dba1ec1	0.09087897
98	0xbd829244	-0.06375554
99	0x3d84a780	0.064772606
100	0x3d93aec5	0.07211069
101	0x3dfc3c37	0.123161726
102	0xbd4246d3	-0.047430824
103	0x3daefbfd	0.08544157
104	0xbd0c1048	-0.034195215
105	0xbccca9bf	-0.024983285
106	0x3dc8105e	0.09768747
107	0xbd21ef55	-0.039534885
108	0x3c2f0642	0.010682644
109	0x3dd80f1b	0.10549756
110	0xbd1196ca	-0.035544194
111	0x3d5926ab	0.053015392
112	0x3de04522	0.10950686
113	0xbcbdd982	-0.023175005
114	0xbd12fa9c	-0.03588353
115	0x3c6a76b0	0.014310524
116	0x3df9123b	0.1216168
117	0xbd5ec763	-0.05438937
118	0x3e125a7f	0.14292334
119	0x3d8953d2	0.067054406
120	0x3dd9beaa	0.106320694
121	0x3df9ddd9	0.12200517
122	0x3d3ca57f	0.046056267
123	0xbcd54f56	-0.026038807
124	0xbcb6700b	-0.022270223
125	0xbcd1d3f1	-0.025613757
126	0xbbffd2d8	-0.007807117
127	0x3d17783d	0.036979903
128	0x3dcd0e21	0.100124605
129	0xbcf31904	-0.029675014
130	0x38b9baef	8.8563065e-05
131	0xbd1b74a0	-0.03795302
132	0xbd5c2db8	-0.05375454
133	0x3d3a8280	0.04553461
134	0xbbaecd9a	-0.005334568
135	0xbcf759f7	-0.030194266
136	0x3d26829b	0.0406519
137	0x3e2ace3a	0.16680232
138	0x3da3df3c	0.08001563
139	0xbd00d789	-0.03145555
140	0xb9e8a3e3	-0.00044372593
141	0xbd01e430	-0.031711757
142	0xbcde873d	-0.027164096
143	0x3e032cf4	0.12810117
144	0x3dbd656b	0.092478596
145	0x3e130d34	0.14360505
146	0x3db91481	0.09037114
147	0x3de01eca	0.109433725
148	0x3da7dc0c	0.081962675
149	0x3d416170	0.047212064
150	0x3d13c38f	0.03607517
151	0xbd1091a0	-0.03529513
152	0x3dfaaf1b	0.1224043
153	0x3d6fe714	0.058569983
154	0x3c4f42a0	0.012650162
155	0x3dda09cf	0.10646402
156	0x3da21099	0.07913322
157	0xbcb2c3a8	-0.021821812
158	0xbd6ff716	-0.05858525
159	0x3db6016d	0.08886991
160	0xbc432a29	-0.011911907
161	0xbd3ea3e1	-0.046543006
162	0x3d43e645	0.047827024
163	0xbc610380	-0.013733745
164	0x3dba9dc9	0.091121264
165	0xbd7cde45	-0.06173541
166	0x3dc1d9b0	0.09465349
167	0x3d2e894d	0.04261141
168	0x3db9dd66	0.090754315
169	0x3c56d79c	0.013112929
170	0x3d3cc4f6	0.046086274
171	0x3db7e063	0.08978345
172	0x3d7dc969	0.061959658
173	0x3cdd5df5	0.027022341
174	0xbd26d207	-0.04072764
175	0x3d790ec1	0.060805086
176	0xbcd54a10	-0.026036292
177	0xbc5d3f87	-0.013503916
178	0xbd167d7b	-0.03674076
179	0xbd09c409	-0.03363422
180	0x3df01ae8	0.11723882
181	0x3c6d9af9	0.01450228
182	0xbd48284c	-0.048866555
183	0x3ad74a65	0.001642537
184	0x3d3c831b	0.04602347
185	0xbd274cab	-0.0408446
186	0xbd01c6d1	-0.031683747
187	0x3d2684da	0.04065404
188	0x3c8b694f	0.017017988
189	0x3dac92a2	0.084264055
190	0x3da2c681	0.07948018
191	0x3da2c611	0.079479344
192	0xbcec252c	-0.028826319
193	0x3c682f3f	0.014171421
194	0x3b87f42c	0.0041489806
195	0x3df9643e	0.12177323
196	0x3db11712	0.086469784
197	0x3dc3b132	0.09555282
198	0x3d492e08	0.049116164
199	0x3d71547f	0.058918472
200	0x3d019b32	0.031642146
201	0x3dbcb4c9	0.092141695
202	0x3d98531d	0.074377276
203	0xbd4a33b8	-0.04936573
204	0xbd49341f	-0.049121972
205	0xbdafc071	-0.08581627
206	0x3d8570b6	0.065156385
207	0xbc6b7ca8	-0.014372982
208	0xbccc996d	-0.024975503
209	0x3cb02314	0.021501102
210	0x3ddc0407	0.10742956
211	0xbdbe563a	-0.0929379
212	0x3d8f45e3	0.06995752
213	0x3d9d2a50	0.07674086
214	0xbc3e4b86	-0.011614686
215	0x3d877498	0.06614035
216	0xbd361765	-0.044455905
217	0xbcfc4133	-0.030792808
218	0xbcfd004d	-0.030883932
219	0x3d98269e	0.07429241
220	0xbc834ca9	-0.016027765
221	0x3db95b0a	0.090505674
222	0xbd474982	-0.048654087
223	0xbd78a3ad	-0.06070297
224	0xbc0f29be	-0.008737979
225	0xbda94f32	-0.082670584
226	0x3df3597f	0.118823044
227	0x3d826a95	0.06367985
228	0xbd01ad08	-0.031659156
229	0xbb0545d3	-0.0020335808
230	0xbd99cb8d	-0.07509527
231	0x3d735992	0.059411593
232	0x3d706ddc	0.05869852
233	0xbdcc055b	-0.09961959
234	0x3de728e8	0.11287099
235	0xbd72151d	-0.059102166
236	0x3dd4e73b	0.10395666
237	0xbd713fee	-0.05889886
238	0x3df33311	0.118749745
239	0x3def7fe5	0.11694316
240	0xbd94a054	-0.07257143
241	0x3dc80991	0.0976745
242	0x3d367e5c	0.0445541
243	0xbdf568cf	-0.11982881
244	0x3dd89857	0.105759315
245	0x3d087c8a	0.033321895
246	0x3bd5b2c4	0.0065215547
247	0x3de4683b	0.11152693
248	0x3c29b436	0.010357907
249	0xbc029422	-0.007969888
250	0x3b16c5ec	0.0023006154
251	0xbdefddc8	-0.11712223
252	0x3b14755d	0.0022652962
253	0xbcb4a03a	-0.022049058
254	0x3df41096	0.11917226
255	0xbdcc8eb7	-0.09988158
